HW2/q1_2_3/saved_params_40000.npy (npy, 836528 bytes, 1 tensors)

array f8 [104550]
000000 9a 93 90 50 62 bd dd bf c5 7e 24 2a 8d f7 8d 3f
       -0.4646840845837744 0.014632323120678756
000010 b4 e6 fa 18 c5 f2 ba bf c8 6a 15 a3 ef c0 e6 3f
       -0.1052668748842745 0.7110517678477999
000020 8b cf f2 4c 63 d5 e7 bf 57 df d6 e8 51 2f f4 bf
       -0.7447983267688739 -1.2615527243887834
000030 67 9d 0e 9d 0a ee e6 bf 0e f8 e7 ff 05 91 cd bf
       -0.7165577952882075 -0.2309882640401501
000040 ac a5 c2 4f 24 94 f3 3f 90 6d 06 72 16 05 e7 bf
       1.2236674419058131 -0.7193710543682972
000050 9a 49 e6 64 59 07 f2 bf 9a 16 34 8f 29 f9 d2 bf
       -1.1267942372693143 -0.2964576624366174
000060 2e e2 96 ff f4 bd f0 bf 77 67 5c 52 17 a4 eb 3f
       -1.0463762268028733 0.8637806519138697
000070 5b 83 92 6a 5c 13 c8 3f cc f9 84 09 ba 00 f4 bf
       0.18809085086561592 -1.2501774188855164
000080 18 ca b2 f7 22 a4 d5 bf 94 38 10 35 92 8b f4 3f
       -0.33814310254379754 1.2840749810016279
000090 1d a6 9c de c3 67 e1 3f c4 18 89 c3 c1 b5 f2 3f
       0.5439166400803433 1.1693742406946948
0000a0 0d 12 9b 9e 77 c9 dd bf 20 10 79 7e eb 72 c2 3f
       -0.4654215859302731 0.14413207698282893
0000b0 f0 c5 9d 80 e3 56 e4 3f 8b fd 22 96 79 8d a2 3f
       0.6356065284764423 0.03623561818812523
0000c0 59 69 b8 c2 15 6d e5 bf eb 1c 31 49 be 10 f9 bf
       -0.6695660403377516 -1.5665877207809966
0000d0 4d 4e 27 2e c1 36 d6 bf 48 14 ca 95 f3 7b d3 bf
       -0.34709195620709893 -0.30444039943569523
0000e0 0b 7e a9 b0 ab bf f6 bf 4a 9f d8 aa 5f fe e1 3f
       -1.4217945958006364 0.5623014771308388
0000f0 87 ae 71 e6 46 9e b6 bf 37 9f 7b 7e 59 4a f0 3f
       -0.08835261465145026 1.0181517544496737
000100 55 b2 01 26 06 78 e5 bf c4 e7 ad 7b 55 87 e3 3f
       -0.6709013693158093 0.6102702537166285
000110 2e f1 23 4b 2f 74 ef bf 48 fe dd 2f ff a5 f4 bf
       -0.982932707556335 -1.290526568394755
000120 c1 54 2a 10 7b d2 b9 bf a2 f1 eb 36 c6 f7 c1 bf
       -0.10086793083822256 -0.14037397081109498
000130 14 bd 47 ec 1c 4c e3 3f 37 03 8a 77 7a de cf bf
       0.6030411352966518 -0.24897700154181177
000140 ce 57 0d 05 9b e8 f1 3f 1e 11 f7 46 60 75 b6 bf
       1.1192884633396605 -0.087728516889062
000150 bb 4e 69 d8 f0 09 f4 3f be e4 09 9c d8 3a b7 bf
       1.2524269536560684 -0.090741670699475
000160 c3 a1 d0 30 a6 b0 a4 3f 0f 1f 00 3b 46 e3 da 3f
       0.0404102263058266 0.4201217247177604
000170 0c 3e 8e 97 ee 64 bd 3f 03 62 3f 37 e1 1d cb bf
       0.11482135009850242 -0.21184935758243748
000180 d2 db 99 02 49 18 dc bf 10 77 29 e4 e9 f6 ac 3f
       -0.43898225072865416 0.05657130155735335
000190 26 a6 c6 97 70 e9 e4 bf 28 61 01 72 79 e8 d0 3f
       -0.6534960712789981 0.26418911107386345
0001a0 fa 3f b9 49 5d 09 ea 3f 53 03 2e 68 a6 33 f1 3f
       0.8136431159891793 1.0751098699112915
0001b0 96 bd a8 60 8e c8 fa bf b2 9e da e7 90 0a bc 3f
       -1.6739639068362968 0.10953622494218498
0001c0 4f 2c 36 1b de 51 8e 3f f7 41 11 96 81 61 c5 bf
       0.014804587560112518 -0.16703815295706168
0001d0 04 3f 54 0e 92 bc e0 bf 26 81 63 80 98 e4 e0 3f
       -0.5230188636651012 0.5279047496406164
0001e0 7a cb ad 6b 89 c5 d7 bf 31 ca 12 a3 c9 00 a2 3f
       -0.3714316894103643 0.035162259251042
0001f0 5c d2 86 df 8f 78 a0 3f c8 c1 55 58 de 60 dd 3f
       0.032169815097778026 0.4590373861929291
000200 36 93 fa 62 52 f3 f5 bf 36 e1 ff f9 50 e3 e1 bf
       -1.3719047418937413 -0.5589985735705685
000210 8e 22 38 4e d3 bc da 3f 84 40 ff 26 7c 9f fb bf
       0.4177749885425691 -1.7264367602656714
000220 a1 43 86 91 20 8c d4 3f 68 fc 2d 47 52 d2 be bf
       0.3210526867997548 -0.12039674985679627
000230 43 56 a9 c0 66 f6 c2 3f 2c 8c 8b 91 d4 12 d5 3f
       0.14814457328127348 0.32927431310071387
000240 7c cf 74 43 47 d8 f6 3f 9b 22 02 86 55 6d eb 3f
       1.4278023371707311 0.8570964448309327
000250 b6 af ad 55 50 b8 f4 bf 3e 2d 2d cc 95 95 d1 3f
       -1.2949984881224572 0.27475495280369333
000260 99 0e f9 5f e5 c9 c8 3f 73 48 f2 ff a1 ec f4 bf
       0.1936613768212865 -1.3077716825396493
000270 6a 45 03 6b a0 b3 db bf 63 df 39 60 76 66 e2 bf
       -0.4328385396048221 -0.5750076178946809
000280 d3 e4 3a 81 77 86 f0 3f 6f 41 6a 08 36 e0 a7 3f
       1.032828812413119 0.04663246968005096
000290 0f 82 56 04 49 f1 f8 bf ee c9 48 9c 9a 99 ff bf
       -1.5589075250101165 -1.9750009636742294
0002a0 32 5a 0b d3 a6 90 c4 3f a9 64 f9 52 dd 7d e4 3f
       0.1606644182672468 0.6403643246259395
0002b0 b9 a6 41 46 7c 62 fb 3f ed dd c6 20 bc 59 e7 bf
       1.7115442985909068 -0.7297039642498341
0002c0 30 d2 91 cb dc af ba bf cf f8 73 89 2b 16 e0 3f
       -0.10424594850503222 0.5027063068989949
0002d0 5d 71 bc dd 3b fc f1 bf d8 20 80 0d 3a fb e5 3f
       -1.124080530316028 0.6869173301393188
0002e0 49 a4 e0 ae 88 c8 c7 bf 86 39 f5 97 b9 84 eb bf
       -0.18580730952206384 -0.8599517791679296
0002f0 af 02 58 a2 79 97 e2 bf 2d 70 c3 96 8f 73 e5 3f
       -0.5809906168725173 0.6703565544698954
000300 c8 e6 ea 96 88 33 e0 3f b5 c1 f6 96 8a fb e1 bf
       0.5062907168969213 -0.5619557331574955
000310 f0 15 35 fc 1c 23 d4 bf 13 4e a0 43 77 c0 d1 bf
       -0.3146431410753783 -0.2773721847927117
000320 09 4f b7 ad 13 41 de bf e6 a3 ba 0e 5b ff ca 3f
       -0.4727219768949316 0.21091783732597874
000330 ae da 76 f2 96 41 fc bf dd a5 e5 09 16 9b db bf
       -1.7660130950222697 -0.4313407036448476
000340 94 f9 ee 2a 23 e1 9d bf 9f 7c 8e e5 20 3c ff bf
       -0.029179143424465773 -1.9521798102430592
000350 45 94 93 68 ce 64 f1 bf 8b b6 1d 91 6e f4 fa 3f
       -1.0871109089869304 1.6846757572742799
000360 73 3c 17 ea 59 04 e3 bf 09 4a 8d 25 e4 ca a4 3f
       -0.5942811557851101 0.04061043699643469
000370 2a a8 4f 62 93 7e e4 bf ea a3 16 e0 87 77 c3 3f
       -0.6404511375560606 0.15208528940027516
000380 c8 9b 70 a2 35 47 f4 bf ab ab 31 5c ab 0e ff bf
       -1.2673851342494675 -1.941081390507615
000390 76 f9 1f b4 cf d1 e1 3f db b8 4d af 65 c8 d5 3f
       0.5568617361130197 0.34035627479069114
0003a0 c2 e5 f0 52 ab 92 c4 bf 29 33 55 10 00 59 f6 bf
       -0.16072598981717873 -1.3967285764694657
0003b0 10 eb 9e c7 cf ce e7 bf 79 f1 32 92 52 c3 d1 3f
       -0.7439955614894149 0.2775465419506627
0003c0 3b 93 a1 61 05 8d 7a 3f 58 fa 63 7f 76 30 d5 3f
       0.006482144375785033 0.33108293953401846
0003d0 57 48 2e 2b 62 ec e6 3f b5 f2 c4 b3 49 7d ed bf
       0.7163554042219954 -0.9215439330215164
0003e0 d4 7c 93 3c 9c 71 c2 3f e9 59 07 eb 4a 76 eb bf
       0.14409211118525056 -0.8581900205998042
0003f0 15 96 17 0c 1f fc e0 bf 61 69 e9 35 27 a0 ee bf
       -0.5307765232252587 -0.957049947067656
000400 cc 49 4a 51 f6 38 c3 bf 24 24 2b fd a0 2d d4 bf
       -0.15017584771392334 -0.3152849647854643
000410 35 78 e5 be bb 9e d2 3f e8 3a 13 f7 47 38 f9 bf
       0.29093831674788656 -1.5762405063030034
000420 83 d2 50 a3 4b fb fb bf 8f 88 03 3d 77 44 a9 bf
       -1.7488514308471685 -0.049350477407430586
000430 9a 94 38 79 96 bd f3 bf c9 c6 38 78 01 ec f8 bf
       -1.2337860808559413 -1.557618589035359
000440 22 db 7a a9 cb cf da 3f 43 6a d4 29 fa 46 bf bf
       0.4189328341557702 -0.12217677613481563
000450 f1 95 4e f6 97 06 ee bf 64 39 d0 51 72 b3 d8 bf
       -0.9383048830683817 -0.3859525488814113
000460 56 47 fd c7 b7 6d ed 3f 62 16 c7 d6 50 7f e5 3f
       0.9196432977716806 0.6717914767147699
000470 77 75 fc 92 ae f8 c7 bf c1 5f 4d b3 75 ff d9 3f
       -0.18727667023714975 0.40621702680573085
000480 d0 20 c1 5a 21 b9 f4 bf d0 5d 73 c7 1f 27 de bf
       -1.295197824963953 -0.4711379478225952
000490 29 b8 89 02 29 00 a5 bf 2a 41 17 f8 a2 0b a1 bf
       -0.04101684719067606 -0.03329190519764531
0004a0 7a f5 2b 48 99 69 d7 3f 7d f2 f9 4f f1 bd e0 bf
       0.36582023666399943 -0.5231863557851991
0004b0 1a bd 92 3d e0 c4 e6 3f fb 3c d9 1b 14 e5 a8 3f
       0.711532707462456 0.04862273063610619
0004c0 c6 a9 65 f3 46 4f ce bf 6f 18 ed 13 a9 e1 ce bf
       -0.2367943466627606 -0.24126161072689764
0004d0 38 9b 43 15 a0 25 d6 bf 3e d8 70 c7 6b 31 0a 40
       -0.3460464675576307 3.2741313535034626
0004e0 2a 6f 12 06 8d 32 f1 bf 96 05 be 35 c5 df b6 3f
       -1.0748415219486085 0.0893519645888062
0004f0 b6 7a 42 43 f5 74 f5 3f 70 7b 19 4a 9e 60 a5 3f
       1.3410542132693712 0.041752764268259024
000500 89 8d 2b 1c f3 38 ba 3f fe 50 0c 06 89 42 ee 3f
       0.10243148267504955 0.9456219785811582
000510 61 51 bd be fc ac ee 3f 42 d8 08 5a 07 c5 dc 3f
       0.9586166119939145 0.44952567856251247
000520 42 a9 27 a3 ba 68 f5 bf cd f7 63 32 89 85 f9 bf
       -1.338068616222316 -1.595101544225588
000530 8e 84 d8 a1 70 e1 c3 bf 6d e8 37 8f 9e c3 f1 bf
       -0.1553173818838655 -1.110258635947072
000540 9f 36 bb 95 52 a4 f3 3f f0 d2 75 8d 0f 1a c1 3f
       1.2276178215865128 0.13360781104315533
000550 7b 75 21 2f 51 cb d4 bf f1 7e 11 5f e9 f8 dc bf
       -0.32490949251754103 -0.45269235881822484
000560 e8 5b d5 20 a5 b0 e1 3f 56 59 19 9c ec a2 e3 3f
       0.5528131142881394 0.6136382149514172
000570 65 30 af 0f e1 e7 07 c0 d1 34 76 f1 bb ae ee 3f
       -2.988222239049764 0.9588298526811291
000580 50 e8 9a eb 40 1f d1 3f b7 bd b8 90 3c 00 d5 bf
       0.26753256805716763 -0.32813943989728095
000590 f8 86 81 25 2a 39 d4 bf 01 db 31 4a 7c 8c a4 bf
       -0.3159890524167248 -0.04013431935975654
0005a0 b4 14 b7 ec 66 04 eb 3f 3b 5a 8d 67 63 19 c2 3f
       0.8442873595564806 0.14139978939302175
0005b0 9e b5 9c 8a 73 26 ea 3f 74 6f 90 23 8b c9 db bf
       0.8171937663334352 -0.434176239710488
0005c0 5e f6 05 9e 0e 85 f0 3f c4 86 e8 13 e4 0c e8 bf
       1.0324846432480608 -0.7515735997041806
0005d0 89 ab 9e 0b 1f 5b f0 3f 4f b5 f9 b0 72 ed 03 c0
       1.0222464040659551 -2.490941412563792
0005e0 53 b9 18 f5 aa 1b c2 3f 06 62 aa 4f 37 ce d7 3f
       0.14146935432058658 0.3719614294036834
0005f0 77 5c 53 6f e6 17 f6 3f 62 32 b4 d2 86 1d ba bf
       1.3808349941880615 -0.10201304096353561
000600 4c d1 38 26 f1 b0 f3 bf b9 68 f1 ec 50 30 e0 bf
       -1.2306987278980897 -0.5058979633133937
000610 9a c4 35 de 86 d4 c8 bf cd cf 02 c9 2c 37 97 bf
       -0.19398580408190896 -0.02267141320108106
000620 be 75 5d 30 e4 b8 ba bf 99 be f2 29 5d 4d bf 3f
       -0.104383718307381 0.12227422975660786
000630 66 98 a0 2a 6d 97 f3 3f dc 2a 72 11 ee a8 ec bf
       1.22446934367465 -0.8956213322392972
000640 e1 e5 b2 e2 58 c4 e4 3f 47 57 db 0b c4 f9 f1 bf
       0.6489681651793796 -1.1234779799610395
000650 23 97 e6 c3 e5 da c6 3f d4 32 6c 36 c3 65 f4 bf
       0.1785552221819496 -1.2748443723568714
000660 a1 40 26 49 46 67 c1 bf 0a cc 76 0f aa d2 a9 3f
       -0.13596418925999834 0.05043536604662087
000670 37 79 e8 d1 90 82 f5 3f 55 6b 09 06 db 76 f8 3f
       1.3443763923201695 1.5290174709141031
000680 20 fa c8 7d 73 ad f0 3f 7d 03 20 57 da 9e d3 3f
       1.042346469257275 0.306570611079273
000690 86 ec 95 10 4d b2 c8 bf aa 2e 15 f3 73 e5 e6 bf
       -0.19294131574483603 -0.715509390612586
0006a0 ea c2 a1 63 f1 ad e8 3f 00 9a 86 f7 ce 06 f4 3f
       0.7712332673964657 1.251662222764594
0006b0 f0 1d 84 f7 02 8f c5 3f 99 f9 6a 2a 05 50 e0 bf
       0.1684268673491114 -0.5097680881952328
0006c0 97 f2 80 32 ae 08 dc 3f 2e 58 d2 f1 45 b1 d1 3f
       0.4380298131180011 0.27644489875217715
0006d0 a4 11 3b 08 ab ad cb bf b5 3f 7e 27 ac 90 cf 3f
       -0.2162374296368742 0.24660255363823827
0006e0 06 cb 53 fd 9b 79 db 3f c8 46 ab 79 ed 74 c5 3f
       0.4292974447154595 0.16763084832068942
0006f0 c2 ed 5e 04 3e 2f ec bf 87 ee d9 c4 6a 21 e4 3f
       -0.8807668767325867 0.6290792317153809
000700 38 bf fd c7 da 5b e2 bf bb 34 04 cd 52 1e f0 3f
       -0.573712721450625 1.0074031837896615
000710 db 0a 17 a2 c9 3c d2 bf 44 a6 7d 93 94 e6 da 3f
       -0.2849601824674843 0.4203235092487356
000720 42 81 9a ea 8e 60 e8 3f 06 ef fb c6 75 f2 e3 3f
       0.761786897859601 0.6233471762093081
000730 f3 1a d2 4d 84 64 ce 3f 3c cc c8 3b a1 c6 e7 bf
       0.2374425296768191 -0.7429968040145307
000740 25 0f f5 74 91 bd e1 bf 54 93 94 b8 a4 c6 e3 bf
       -0.5543906483003168 -0.6179984669766818
000750 2c 24 23 54 2d 65 e3 bf 53 ee 4f e3 2c 5a eb bf
       -0.6061007159524983 -0.854757732361984
000760 55 37 1d 4a 0a c7 ec 3f a6 3a a8 79 86 47 cb bf
       0.8992968986073985 -0.2131202787426975
000770 ea 21 6f f6 da 50 e7 3f 10 b2 8d 58 55 87 c1 3f
       0.7286200345197902 0.13694254707242282
000780 d3 97 38 a7 25 32 d4 3f d5 7d f9 39 2c 35 e1 bf
       0.3155607350366811 -0.5377408153835243
000790 85 72 1c cf fe f1 ec bf 8d 60 a0 fe ee 48 f7 bf
       -0.9045404477252111 -1.4553060480448352
0007a0 95 5b e7 ba d8 ab ed 3f c2 2c 2d 5c ee 7b cf 3f
       0.9272273683990188 0.24596957684329906
0007b0 af d0 fb 1e eb 25 e7 3f aa e0 54 62 99 01 cb 3f
       0.7233787160062287 0.21098630238862387
0007c0 ee 26 d8 a9 fa 7e ff 3f df 17 74 7a eb fe f4 bf
       1.9685007700485886 -1.312236288389151
0007d0 ca 01 34 e2 30 59 e9 3f 0d 2e ef fa 47 78 b6 bf
       0.7921375673322981 -0.0877728450424728
0007e0 14 18 30 f6 ae 6a fe bf f9 94 6b ad 0e ef e2 bf
       -1.9010457627023287 -0.5916818034280872
0007f0 a2 9d 3d af 61 dc cb 3f 8b 77 6c f7 78 61 fb 3f
       0.2176630120913901 1.7112970032680745
